Model: "sequential"
_________________________________________________________________
 Layer (type)                Output Shape              Param #
=================================================================
 batch_normalization (Batch  (None, 2560, 1)           4
 Normalization)

 conv1d (Conv1D)             (None, 2556, 8)           48

 max_pooling1d (MaxPooling1  (None, 1278, 8)           0
 D)

 re_lu (ReLU)                (None, 1278, 8)           0

 dropout (Dropout)           (None, 1278, 8)           0

 batch_normalization_1 (Bat  (None, 1278, 8)           32
 chNormalization)

 conv1d_1 (Conv1D)           (None, 1274, 16)          656

 max_pooling1d_1 (MaxPoolin  (None, 637, 16)           0
 g1D)

 re_lu_1 (ReLU)              (None, 637, 16)           0

 dropout_1 (Dropout)         (None, 637, 16)           0

 batch_normalization_2 (Bat  (None, 637, 16)           64
 chNormalization)

 conv1d_2 (Conv1D)           (None, 633, 16)           1296

 max_pooling1d_2 (MaxPoolin  (None, 316, 16)           0
 g1D)

 re_lu_2 (ReLU)              (None, 316, 16)           0

 dropout_2 (Dropout)         (None, 316, 16)           0

 dense (Dense)               (None, 316, 64)           1088

 dense_1 (Dense)             (None, 316, 32)           2080

 flatten (Flatten)           (None, 10112)             0

 dense_2 (Dense)             (None, 1)                 10113

=================================================================
Total params: 15381 (60.08 KB)
Trainable params: 15331 (59.89 KB)
Non-trainable params: 50 (200.00 Byte)
_________________________________________________________________
Files in the dataset:
F:\CHB-MIT\Ictal_00.csv
F:\CHB-MIT\Ictal_01.csv
F:\CHB-MIT\Ictal_02.csv
F:\CHB-MIT\Ictal_03.csv
F:\CHB-MIT\Ictal_04.csv
F:\CHB-MIT\Ictal_05.csv
…
